EEGNet8,4_nonEA.ckpt (torch, 68248 bytes, 44 tensors)

encoder.inception_block.0.0.weight f4 [8, 1, 1, 64]
00000000: d428 c5bc f249 2abe d8f9 c73b 9710 2b3e
00000010: 423b 1b3e f2f9 533d 5040 393c 8e6d eebd
00000020: 1336 b7bd 696d 893d dedb 3b3e caab 773e
00000030: 5ff6 4e3d 527a 2dbe 9cdf 69bc ba6e 213d
00000040: 7b0f 0abd e081 64bc caa1 ea3d 9db1 c93d
00000050: 7194 0c3d ec03 c1bd fe88 b73d c32b 3f3e
00000060: 8122 863c 44d9 2dbe 8b10 fe3d 44fd 933e
00000070: f808 e13d 7411 8dbe 185a c0be c3f6 813e
00000080: f30f 353f 4d53 f73d 68f7 8ebe 9be2 60be
00000090: 893f c93e 34f9 c53e b0f5 6ebe a347 fcbe
000000a0: 3edb 21bd 4981 373e 1315 f53d d681 b5bd
000000b0: fa20 6d3e cbcf 533e e3ac 8e3d 3cbc 403c
000000c0: 40b8 72bc 6640 3d3e a13e 0dbe 724b b0bd
000000d0: bdd3 85bd 93c1 923d e7ac cc3c f182 923d
000000e0: c1fe 313d c010 063e 1650 e13d 9611 a1bd
000000f0: ec7e 9c3d cd3e 6a3d 41d9 53be 6edb 35be
00000100: bfa9 4f3e a7db a73d 9f70 c63d cf23 2e3e
00000110: 1fb8 023e 57ec 343e c7ce 8b3d 6c34 d9bd
00000120: 7af1 68be ed31 dd3c 8107 d03d 03b7 8c3e
00000130: ffaa d83b 383e 0fbe 34d7 86be f2d7 813c
00000140: ada8 013d 5d55 8c3d 6ad9 11be ea7f 99be
00000150: 0dbc 1ebd 217e 973e 8b49 dc3e c597 293e
00000160: 8caa 40be 4267 84be eca9 89bd 01f9 9ebd
00000170: 2b9b 8c3d 9e72 c6bd 6285 47bd ddea f93d
00000180: b696 cd3e aba7 083f c3f5 283e cad3 56bc
00000190: 2f2d 23be 82de 93be f10e 89bd a77e 98bd
000001a0: 54f6 9db8 7b60 8c3d a745 2c3e 0aad 703e
000001b0: 0792 e33e b3b1 0e3e fa94 f6bc 6fa4 98be
000001c0: 7dd2 31be 9bda 06be 0c8a 9bbd f5cf 153b
000001d0: 42a2 54bd b598 443e a814 2d3e 2bf4 903e
000001e0: b2f1 bd3d 06f6 023d 7a05 15be a4a9 22bd
000001f0: 7683 5ebd a054 0bbe 302f acbe 24ec 7f3d
00000200: 6907 ebbd aaa7 073e b81e 2b3e 440c 303e
00000210: b8bc 663e a548 0a3e f45b 603e 71b1 273e
00000220: 8fa6 cc3d 11e4 103e 800c 45bd 6ba1 93bc
00000230: 9051 27be b703 66be c05c acbe a9a9 91be
00000240: 49a6 88be 5ebf a6be 8a0d 76be dfb1 76be
00000250: 3b47 38be daad 8b3c 5be4 103d 170c 3d3d
00000260: cf77 5d3e 8bea 643e e982 4c3e 2e60 463e
00000270: 2555 353e b5b9 b83d bdd0 133c 8b99 1c3d
00000280: 623d 03be 847e 11be f36f 79be d43b 8bbe
00000290: a12a 72be 9e8e 65be 5150 8ebd 8f26 81be
000002a0: a1f4 2bbd 537e fa3c fa83 2a3e 86d7 223e
000002b0: a5ed 683e 8c19 ad3e 8396 8d3e 31eb 803e
000002c0: 07b5 783e 0bdf 113e c126 b23d e8ad 403d
000002d0: 73a9 fdbc e887 c8bd 2035 fdbd 7814 3ebe
000002e0: 04bb 61be 3e9c 70be 22d8 12be 0058 2abe
000002f0: bd5f afbd aeb2 35be 2abb 89bc 11fe ba3d
00000300: 88c9 703e 8371 9dbe 4fc8 a5bd 9907 f9bb
00000310: 9d1c 0b3e 994a 6bbb 7903 20be 21da 3bbd
00000320: 1466 633d ed99 393e 01d8 a43c 47ed 06be
00000330: 1655 75be 094d 84bb dbcb 263d 9f45 3c3e
00000340: fd4e 173e c647 afbd 494a 94bd bd6b ee3d
00000350: 9f8f 5a3e 3e8b d73b 487b 45bd 5e68 71be
00000360: 5d09 c5bc f6ff 803d e113 af3d 6842 af3d
00000370: f46c 0a3e aad3 d23e 5dc5 8f3d 7333 3abe
00000380: 73b6 15bf 165d fbbe dcb1 f9bc 4b3f 933e
00000390: 11a5 b43e 5bca 6fbd eae7 1cbe e191 e7bd
000003a0: ca5c d33d fe00 963e ecb0 b4bd b6a2 cebe
000003b0: f735 02bf ab11 e3bd 7db9 5c3e e47b a13e
000003c0: 9640 ba3d 19f5 87bd 6eeb a9bc c225 01be
000003d0: 4b83 1a3c 048e c6ba 7a64 33be 6773 e7bd
000003e0: 031d 953d 5996 383e ea2f 2c3e cc95 0cbc
000003f0: 67a1 7ebd 8494 fabd 07cb c23c 2f58 64be
-0.02406732 -0.1662977 0.0061027817 0.16705547 0.15159324 0.05175204 0.011306837 -0.1164199
-0.08945861 0.067103215 0.18345591 0.24186626 0.050527927 -0.16941193 -0.014274504 0.039412238
-0.03370617 -0.01394698 0.1145664 0.0984833 0.034321252 -0.09424576 0.08961676 0.18669038
0.016373875 -0.16977412 0.12405499 0.28904164 0.10988039 -0.27552378 -0.37568736 0.25383577
0.7072746 0.12076435 -0.2792313 -0.21961443 0.39306286 0.3866669 -0.2333591 -0.49273404
-0.039515726 0.17920412 0.1196691 -0.08862655 0.23157111 0.20684735 0.06966569 0.011763629
-0.014814436 0.18481597 -0.13793422 -0.0860814 -0.065345265 0.071658276 0.02498479 0.07153881
0.043455843 0.13092327 0.11001603 -0.078646824 0.07641396 0.057188798 -0.20688345 -0.17759487
0.20279597 0.08196192 0.096894495 0.17005847 0.12765549 0.17668281 0.06826549 -0.10605702
-0.22748366 0.027001346 0.10157681 0.27483377 0.006612181 -0.13988578 -0.26336062 0.015850041
0.031655002 0.06852219 -0.14243093 -0.29980403 -0.038753558 0.29588416 0.4302486 0.16561802
-0.18815058 -0.2586003 -0.06721863 -0.077623375 0.068655334 -0.0968983 -0.04871119 0.12203
0.40154046 0.5338084 0.165 -0.013112018 -0.15935205 -0.28880697 -0.06692303 -0.07446032
-7.5322256e-05 0.0685434 0.16823445 0.23503509 0.44447348 0.13934974 -0.030100334 -0.29812953
-0.17365451 -0.13169329 -0.0759469 0.0022859548 -0.051912554 0.19198878 0.16902411 0.28311285
0.09274615 0.031972907 -0.1455287 -0.039712563 -0.05432459 -0.136065 -0.3362975 0.06248106
-0.11476023 0.13247553 0.16710937 0.17192179 0.22532928 0.13504274 0.21910077 0.16376282
0.09992706 0.141495 -0.048107624 -0.018021306 -0.16339707 -0.22462355 -0.33664513 -0.28449753
-0.26689366 -0.32567877 -0.24028602 -0.2409129 -0.17995922 0.017050672 0.035374027 0.046154108
0.21627735 0.22355096 0.19971813 0.19372627 0.17708261 0.09019796 0.009021935 0.038232367
-0.12816384 -0.14208418 -0.24359111 -0.27194083 -0.23649074 -0.22417685 -0.06948913 -0.2522473
-0.041981343 0.030577814 0.16651908 0.15902528 0.22746904 0.33808553 0.27653894 0.25179437
0.24287806 0.1424524 0.08698798 0.04704085 -0.030964589 -0.09791547 -0.123636484 -0.18562496
-0.22043997 -0.23497102 -0.1434026 -0.16635132 -0.085631825 -0.17743942 -0.01681288 0.091304906
0.23514378 -0.30750665 -0.080948465 -0.0075997827 0.13585134 -0.0035902618 -0.15626325 -0.04586232
0.05551727 0.18125124 0.02012253 -0.13176452 -0.23958239 -0.0040375036 0.040721755 0.18385933
0.14776225 -0.085586116 -0.07240731 0.11641643 0.2134385 0.0065778783 -0.048213273 -0.23574969
-0.024052316 0.06298821 0.085487135 0.08557588 0.13518125 0.41177112 0.07020066 -0.18183689
-0.5848152 -0.49094456 -0.030480318 0.28759226 0.35282186 -0.05854259 -0.15322843 -0.11307121
0.103204325 0.29297632 -0.08822808 -0.40358514 -0.50863594 -0.11087354 0.21555133 0.31539834
0.0909435 -0.066385455 -0.020742144 -0.1261206 0.009430717 -0.0015148525 -0.17518798 -0.11301308
0.07280924 0.18026103 0.16815153 -0.008580636 -0.062165644 -0.12235358 0.023778452 -0.22299264

encoder.inception_block.0.1.weight f4 [8]
00000000: 332b 803f 9856 803f b638 803f 4c33 803f
00000010: 6b2d 803f ea15 803f 7f4c 803f ae3f 803f
1.0013183 1.0026426 1.0017307 1.0015655 1.001386 1.0006688 1.0023345 1.0019433

encoder.inception_block.0.1.bias f4 [8]
00000000: 13a9 8735 29e7 50b5 6fae 7eb5 1cb6 0ab5
00000010: 96aa c435 5fef 40b6 6292 9bb4 c6a6 7734
1.0107491e-06 -7.782242e-07 -9.487621e-07 -5.167401e-07 1.4652785e-06 -2.8749562e-06 -2.8977507e-07 2.306434e-07

encoder.inception_block.0.1.running_mean f4 [8]
00000000: 4d30 a1b8 1846 a3b8 7075 c738 8544 0839
00000010: f337 3839 3476 f3b7 200d 3738 d284 9139
-7.686075e-05 -7.785502e-05 9.510934e-05 0.00012995496 0.0001756845 -2.90229e-05 4.3642824e-05 0.00027755514

encoder.inception_block.0.1.running_var f4 [8]
00000000: d85f 6b40 14a8 e340 0a5e 923f 2e4f 9140
00000010: e3e7 4440 efca 2740 0e1a 0b41 d0bc 1b41
3.6777248 7.1142673 1.1434948 4.5409155 3.0766532 2.621761 8.693861 9.733597

encoder.inception_block.0.2.weight f4 [32, 1, 28, 1]
00000000: fa2d 833d 09a4 bdbd dca9 b83d 03d6 75be
00000010: 8703 903e 411b babd 216e c8bd 7a8a d73d
00000020: ab62 8a3e 9040 eb3c fcaf 6abc ec82 4ebd
00000030: b223 a8be 6abe b43e 68bc 0f3e 2644 cc3d
00000040: cbcb 993d 6603 88be 5761 7dbc 81d9 5bbe
00000050: 4875 893e 9165 623e 954a 21be 8a6d 86bd
00000060: 3c7b 41be 959e 2a3e f4bb b1be e355 06be
00000070: 77fa e6be c20d 8e3c ec20 81be c9ef cebd
00000080: 563f 443e 10c3 95bc caee 133e 7a71 e5bd
00000090: affd 8e3e c1d4 d7be aaf9 143e 5737 59be
000000a0: f941 4dbd dcb6 dd3a 6441 853e 1009 a8bd
000000b0: 8807 d43c a6ec acbd c4ed b63d 4fd5 ea3d
000000c0: ff1f 2c3e 20c4 283e 1295 ac3c 8ade abbe
000000d0: 9b25 3e3e 7b0c b03b 7095 0dbe e77c 2ebc
000000e0: 30e7 0d3e a646 99bd fb4b c73c 140d 4abe
000000f0: 6ca4 9f3e a1e5 23bd e380 4ebd d1c6 d03d
00000100: 1011 30bd f92d cebe 2797 b0bd 59de 8c3d
00000110: b9a9 96bc 8a91 ac3e 9cf0 533e 9423 43bd
00000120: 1028 bc3c c17b 903e 7b31 14be 53de 9fbd
00000130: ea8a 163d 1317 8fbe f68d 12be 1ce8 49be
00000140: f400 a93e 9741 74be c0ce 3a3e 3501 50be
00000150: 4413 85bd d809 63bd db2d 093e 5a28 25be
00000160: 3fea 703e c026 563c 4ecf 0cbf fed9 93be
00000170: c0dd c13d 00e3 033c 21d9 5c3e e2b3 5e3e
00000180: 7a54 503e 6b12 04be 0f76 983e 3a34 7e3e
00000190: 3bcc 4bbd baf0 b63d a616 77be c181 263e
000001a0: e208 853d 9458 4dbe 8a3e 79bd 702a db3d
000001b0: 8af4 0fbe d0a8 e9bd 4779 93bd 5ea9 523d
000001c0: ef85 1cbd 49a2 2d3d 5328 983d 68f9 8cbe
000001d0: 03a3 553b 3880 7fbd 63e5 c6bd 2218 923e
000001e0: fe37 be3c cf36 9fbe d606 aabd 1e5b 08be
000001f0: 57cd 70bd b746 c73c bc4a fcbe 64eb 4a3d
00000200: 6b11 273e 1213 58bd c74f d7bd 0041 f63e
00000210: e61d 8e3c 96b2 85be 20f5 383e 80b5 b43d
00000220: 2028 d53d 26d3 11bd fdd2 893d ed67 ffbd
00000230: 7a34 d9bc f5ee 74be a398 173e 48ab b5bd
00000240: c23d 6b3e 114a 79be 9579 b3bd a9fa 8fbe
00000250: 58cc 62bc 75ea 94bb 0aff 7a3d d7d3 743e
00000260: b6cc 713d f24f 37be 51c0 06be 0a75 bf3d
00000270: 9d16 723d e0ae acbc e259 c83e 4b7a 8ebd
00000280: 1063 b6be 3571 37be 7920 b43e 5263 373e
00000290: eb10 8e3d 2180 91ba 4cf4 34be 25d1 603e
000002a0: cc89 163d 39fc a8bd 48e0 d23b 7ae1 e33c
000002b0: 0c39 acbe 9c70 c1bd 5ead 11be 2d04 7d3e
000002c0: b87f f7bd 0349 3cbe b0c4 44bc 3b4f ebbd
000002d0: 9870 79be 01f9 0f3e c87b c03d d146 b43d
000002e0: ac07 0abe 91a5 153f 2e4c f43d cc21 3cbe
000002f0: b7a3 f4bd 8a11 d13d 8ed5 893e ff8a 31be
00000300: d5c3 243e c21e 063e 290b 2a3e 4852 20be
00000310: d21f 0e3d 7980 803d 707d d8bb a6cf 12bd
00000320: e919 f13c 7920 313e 78cb f0bb 7522 91bd
00000330: 991a 07be af00 39be 1357 3e3c 900e 09bd
00000340: 0d73 543f 9cba 2ebe f097 283e 3092 963d
00000350: 1e9b 1dbe 4b4f 113e 561b 93bc 7dea cabd
00000360: 5c43 06be c6b2 30be eb3c 1abe 3374 6abd
00000370: 508d 81bd 7c44 683d 4f66 b4bd 7772 d83d
00000380: bd8d de3d 6493 28be 2e2b 20be e942 563e
00000390: 1206 b13c 466a 113e 5b9a d13d 1fc9 c03e
000003a0: 0cbe 83be 887e b23d c65e 66bd 6ce3 33be
000003b0: 1f41 24bd a91d 583c dfb2 0fbd 0fb1 d0bd
000003c0: bbe2 7cbe e184 8dbd 361b fdbc c6f7 fdbd
000003d0: 2be8 7abd 284d 46be 2ca1 1f3e 6521 a93d
000003e0: 8b38 ebbd 6ddb 2e3e 684d 183f 480b 593e
000003f0: e422 173e d8cc 82be 148d 163f 4e6b 16be
0.06405254 -0.09259803 0.09016773 -0.2400742 0.2812769 -0.090872295 -0.097866304 0.10524459
0.27028403 0.02871731 -0.0143241845 -0.050417826 -0.32839733 0.35301524 0.14036715 0.09973936
0.075095735 -0.26565093 -0.015465102 -0.2146969 0.2684729 0.22109057 -0.15751107 -0.06563862
-0.18894666 0.16662057 -0.3471371 -0.131187 -0.45112965 0.017340545 -0.2522043 -0.10104329
0.19164786 -0.01828149 0.1444656 -0.112032846 0.2792792 -0.42154506 0.14548364 -0.21212517
-0.050111745 0.0016915458 0.26026452 -0.082048535 0.025882497 -0.084435746 0.08932069 0.11466467
0.1680908 0.16481066 0.021067176 -0.3356822 0.18569033 0.0053725815 -0.13826537 -0.010649896
0.13857722 -0.07484178 0.024328222 -0.19731551 0.3118013 -0.040013913 -0.050415885 0.10194171
-0.042985022 -0.4026945 -0.0862258 0.06878347 -0.018391477 0.33704787 0.20697254 -0.04764135
0.022968322 0.28219417 -0.14472 -0.07806077 0.036753573 -0.27947292 -0.14311966 -0.19717449
0.3300854 -0.23853146 0.18242931 -0.2031296 -0.06497815 -0.05542931 0.13396399 -0.16128674
0.23526858 0.013070762 -0.5500382 -0.28877252 0.094661236 0.0080497265 0.21567203 0.21748307
0.20344725 -0.12897651 0.29777572 0.2482461 -0.049755316 0.08932634 -0.24129733 0.16260435
0.06495835 -0.20053321 -0.060850658 0.10701454 -0.14058128 -0.114091516 -0.07200866 0.051431052
-0.038213667 0.042391095 0.07429566 -0.27534032 0.0032598383 -0.06237814 -0.09711721 0.28534037
0.023220059 -0.31096503 -0.08302085 -0.13316008 -0.058789577 0.024325712 -0.49275768 0.049540892
0.16315238 -0.052752562 -0.10513263 0.48096466 0.017348241 -0.26112813 0.18062258 0.08823681
0.10408044 -0.035601757 0.06729696 -0.12470994 -0.02651428 -0.2391928 0.1480432 -0.0887056
0.22972777 -0.2434466 -0.08763424 -0.28120926 -0.013842665 -0.004544551 0.06127838 0.23908935
0.05903312 -0.1790159 -0.131593 0.09348495 0.059103597 -0.02107948 0.39131075 -0.06956919
-0.35622454 -0.17914279 0.35181025 0.17908981 0.069368206 -0.0011100807 -0.17671317 0.21954782
0.036752507 -0.08251233 0.006435428 0.027817477 -0.33637273 -0.09445307 -0.1422629 0.24708624
-0.12084907 -0.18387227 -0.012009785 -0.114897214 -0.24359357 0.14059831 0.093986094 0.0880257
-0.13479489 0.5845576 0.119285926 -0.18372267 -0.11945289 0.102084234 0.26920742 -0.17338179
0.16090329 0.1309767 0.1660582 -0.15656388 0.034698315 0.06274504 -0.00660675 -0.03584256
0.0294313 0.17297544 -0.007348474 -0.0708665 -0.1319374 -0.18066667 0.01161744 -0.033461154
0.82988054 -0.17063373 0.1646421 0.07352102 -0.15391204 0.14190404 -0.01795737 -0.09908006
-0.13111633 -0.17255697 -0.15062301 -0.057239722 -0.06325781 0.056705937 -0.08808576 0.105687074
0.10866878 -0.16462475 -0.15641472 0.20923962 0.02160934 0.14200696 0.10234519 0.37653443
-0.25730932 0.0871554 -0.056242727 -0.17567223 -0.040101167 0.013190665 -0.035082694 -0.10190021
-0.24695866 -0.0691011 -0.030896764 -0.12400775 -0.06125657 -0.1936537 0.15588826 0.082583226
-0.11485394 0.17075892 0.5949311 0.2119571 0.14759403 -0.25546908 0.5880902 -0.14689371

encoder.inception_block.0.3.weight f4 [32]
00000000: 79c7 0a40 b0ec cb3f 23e6 0b40 cde9 e83f
00000010: ba7a b53f 9929 fc3f 5736 0540 6721 0f40
00000020: c6b4 0f40 24cc 0240 971c f73f 3b03 0f40
00000030: 3084 f23f 3974 fb3f a5ac f13f 24b1 1640
00000040: 3c2c f43f 547d f23f 5fb6 0d40 42b7 0240
00000050: 41a6 d73f 6be5 cb3f f2d3 f53f 80ec e73f
00000060: 7710 0740 7d32 1040 233d 9d3f 6776 1e40
00000070: 9765 fb3f fd87 ec3f 8c62 f83f 2827 1240
2.1684248 1.5931606 2.1859214 1.819635 1.4178078 1.9700195 2.0814416 2.2364137
2.2454085 2.0437098 1.93056 2.2345722 1.894659 1.9644843 1.8880812 2.3545618
1.9075999 1.8944497 2.214256 2.0424352 1.6847612 1.5929388 1.9205306 1.8119049
2.11038 2.2530816 1.2284282 2.4759767 1.9640378 1.8479 1.9405074 2.28364

encoder.inception_block.0.3.bias f4 [32]
00000000: 3a42 7dbf 5d25 1ebf 07d4 81bf f76b 3dbf
00000010: 47d0 43bf 7892 7dbf 85ef 92bf 4a9d 55bf
00000020: 1446 90bf 58be 82bf 1ac8 82bf f7b6 b2bf
00000030: f70a 71bf 958e 49bf d55b 40bf 5f77 4bbf
00000040: 2f20 5dbf beea 44bf 3a37 9cbf 62d3 8fbf
00000050: d521 2bbf e760 09bf 2da6 47bf b2ea 2ebf
00000060: 935d 96bf a62c 94bf f6c9 0cbf b5c7 90bf
00000070: 63f2 65bf 0202 86bf 6801 8ebf 6393 a9bf
-0.9892918 -0.6177576 -1.0142831 -0.73992866 -0.7648968 -0.9905162 -1.1479346 -0.8344313
-1.1271386 -1.0214338 -1.0217316 -1.3962086 -0.94157356 -0.7873319 -0.75140125 -0.7947902
-0.86377233 -0.7692069 -1.2204354 -1.1236384 -0.668485 -0.53663486 -0.7798794 -0.68326867
-1.1747307 -1.1576126 -0.5499567 -1.1310946 -0.8982298 -1.0469363 -1.1094179 -1.3248104

encoder.inception_block.0.3.running_mean f4 [32]
00000000: 8ac8 c337 b7c1 94b8 76de 3438 baee 5437
00000010: 8955 f9b7 0e0c cbb8 e8a3 9ab7 2cc4 2937
00000020: eac5 88b8 0950 d038 15ab c038 d2b6 7837
00000030: a5db 6bb6 82d1 42b7 bad7 7838 83ab b537
00000040: 15b4 3eb6 373f be37 66f4 6c38 7c37 6cb8
00000050: 4096 d437 3a17 9037 0723 e3b7 31c9 1f37
00000060: fed3 1ab8 2f00 cdb7 69b8 8eb5 c42d 5a38
00000070: f22e 4f38 d394 8635 b4ca 8538 7ba6 67b8
2.3339195e-05 -7.093272e-05 4.3122527e-05 1.2691768e-05 -2.9722944e-05 -9.68204e-05 -1.8434555e-05 1.011886e-05
-6.52185e-05 9.9331206e-05 9.18714e-05 1.4824518e-05 -3.5145579e-06 -1.1612081e-05 5.932872e-05 2.1656748e-05
-2.8417028e-06 2.2679202e-05 5.64944e-05 -5.631846e-05 2.5342335e-05 1.7176953e-05 -2.707682e-05 9.523982e-06
-3.6913894e-05 -2.443799e-05 -1.0633495e-06 5.2017873e-05 4.9396367e-05 1.0027092e-06 6.3796906e-05 -5.522974e-05

encoder.inception_block.0.3.running_var f4 [32]
00000000: 61e8 9d3e 48ae df3e 3a8d 403e 311b 513e
00000010: 2c99 e93e 9b2b a33e cb97 e23e 8dc6 923e
00000020: c651 e83e 82a4 973e 6457 713e a426 593f
00000030: ec00 823e b5e5 983e b7ce 583e 386f 123e
00000040: 44c2 6f3e 1f94 313e 2ceb 8f3e 321b 233f
00000050: 9db6 893e 2c11 713f 39a4 673e 3e70 8d3e
00000060: da0b a33e 2b3c 353f b798 533f 0457 933e
00000070: 1401 393e a915 a73e 3c7e 573f cf1c 1d3e
0.30841354 0.43687654 0.18803874 0.20420529 0.45624673 0.31869206 0.44256434 0.28667107
0.45374888 0.29617697 0.23568493 0.84824586 0.25391328 0.29862753 0.21172605 0.14300239
0.2341395 0.1734166 0.2810911 0.6371337 0.26897135 0.9416683 0.2262124 0.27624696
0.3184498 0.70794934 0.826549 0.28777325 0.18066818 0.32633713 0.84176993 0.15343021

encoder.conv_2.0.weight f4 [32, 1, 1, 16]
00000000: e7c0 5bbe 1a9c 62be cfa0 8bbe 84e0 51be
00000010: 7a68 a5bd 9088 36be d743 f6bd ab42 57be
00000020: ea5c 07be 7b3a f2bd add1 28be c0a0 46be
00000030: 4e2e 7cbe fd24 2cbe f564 9dbe da27 8ebe
00000040: be2a 82be f6d6 91be cd1a 36be f690 64be
00000050: 7f2f 61be 6acc 37be a32a 75be 9b1c 05be
00000060: 32be b8bd 3ca7 40be 43c7 00be f5e6 43be
00000070: aad3 11be 5304 e7bd b3a4 85be 29d7 1bbe
00000080: 1f07 7abd 3523 65be 116a 6dbe 4ea8 bbbd
00000090: 2671 55be c5fe d2bd 2908 ddbd 2770 29be
000000a0: 3cb8 e2bd 724b 28be 750b 16be 0884 adbd
000000b0: 96d3 3fbe 2358 64be c578 55be 872e 28be
000000c0: 23fb 533e a53a 033d 3c18 373e 3a80 c83d
000000d0: d9fe 963d 82f1 783e 52ab d93d 0b4e 7e3e
000000e0: 162c 773e f98e 6d3e 5e04 aa3e 0958 343e
000000f0: 00aa 803e f141 a03e e4ce 8b3e 1f19 623e
00000100: da3a e2be 4367 c93c 859b 19be 2320 39be
00000110: 85d1 0b3e c874 99be 2409 813d 0c5e 7abd
00000120: 7da8 8fbe ade3 a63d b187 a4be c971 18be
00000130: 12ed 90bc bd7d a6be fe84 803b f7c8 80be
00000140: f884 9abe 81a9 90bd ca3b efbd 6797 34bd
00000150: 1ea9 ae3c 7b34 d7bd a84b 93bc f74b b8bd
00000160: c24b 2bbe 281c a9bd 0cf3 38be 559b 8cbd
00000170: 691f 05be 9473 2dbe 8b63 adbd 27ff 86be
00000180: 4ea5 2a3e bade b83d 0912 073e cc82 343e
00000190: 7656 073c 24c4 2b3e e8ab 1b3e 3f42 943d
000001a0: 5d0f 473e fc03 cf3c cb8a a33d 226a 2f3e
000001b0: e1f9 a7bd bb3b 633e 2e44 1b3e 054b 383e
000001c0: 2f05 273e acca df3d 5bde 163e fdf9 4c3d
000001d0: a174 0e3e a017 c83c 66c5 363e b0d6 1b3e
000001e0: 1ec7 d83d 6c90 5e3e 751a 973d d2fc 113e
000001f0: 7668 2a3e 6e2e f53d 7780 893e 22b3 483e
00000200: 8043 7b3e c516 8c3e d90d 833e d22b 9d3e
00000210: 194b 013e c805 c53d 27fc 0c3d 0755 ef3c
00000220: b9e9 363d bea5 2e3d c030 603d 141a 233c
00000230: 8cb0 d33d 4b6b 173e 9455 f83d 06b4 743e
00000240: 1944 073c 73f6 823d cc70 e33c 7927 1f3d
00000250: 52d2 a83d 54cb dc3d 93ea 5d3e ef12 823e
00000260: dfc5 3e3e 0e82 473e 0f35 e33d 01f2 483e
00000270: 9416 9c3e 7329 8c3e b040 8f3e 9365 7b3e
00000280: 5885 d9bd fd82 55bc 9f88 01be 0195 f5bd
00000290: a653 57bd 652c 43bd 9175 6dbd c257 10be
000002a0: 79ac c0bd 7ab1 90bd 8aa7 c1bc 893e 14bd
000002b0: 82f6 b5bd 2d27 c5bd 2963 95bd 7bfc 43be
000002c0: 83b1 a63e 114d b33e 3133 763e 42c8 153e
000002d0: 6c63 323e 17cb 1b3e 7c68 843e 6bf1 713e
000002e0: 15c8 8b3d b9d9 283e f918 463e 6eca 103e
000002f0: eb21 313e 238f a93d 0356 1c3e d31c bc3e
00000300: 92e5 9cbe 49c0 9fbe e711 b0bd ca0a 87be
00000310: 643a acbd 8a41 fcbd 9daa 85be 5b72 fbbc
00000320: 2f55 4cbe 4841 27be da81 86bd ee82 9dbe
00000330: bd20 e6bd b317 8bbe de65 e0bd 5daa 93bd
00000340: 2879 793d 4441 773e ec01 373e b8ae bd3d
00000350: e8e8 793e 7c34 0a3d 04e4 913d 9746 553e
00000360: 5a5a 083d 7207 973e a18d e23d fe73 c43d
00000370: c84b 5e3e 6c14 923d a68a 203e 1535 543e
00000380: 78db 843e a5f7 aebc ab31 063e d887 343e
00000390: 047c 3cbd e851 1e3e c092 923d 9e77 bf3c
000003a0: 6813 873e 3937 143d fe56 ab3d 1ee5 643e
000003b0: d193 a13d ea88 2a3e 2260 263e 66dd 433d
000003c0: 2997 7f3d 2eeb 1d3e 1ad7 a13c 1cae 4f3e
000003d0: 6f9d 8e3d 8e0b 3c3e 3711 b03e 212d 423c
000003e0: 1301 b83e d710 873e df48 ba3d 7671 953e
000003f0: 033a 56bb 4ee8 593e ecf9 083e f556 aa3d
-0.21460305 -0.2212986 -0.27271125 -0.20495802 -0.08076568 -0.17825532 -0.12024658 -0.21021526
-0.13219038 -0.118275605 -0.16486235 -0.19397259 -0.24627039 -0.16810985 -0.30741087 -0.2776478
-0.25423235 -0.28484315 -0.17783661 -0.22320923 -0.21990775 -0.17949072 -0.23942046 -0.12999193
-0.09020652 -0.18813795 -0.12576012 -0.19131072 -0.142409 -0.11280122 -0.26102218 -0.15218796
-0.061041947 -0.22376712 -0.23184992 -0.09162961 -0.20843944 -0.103025 -0.10792572 -0.16546689
-0.11070296 -0.1643503 -0.14652808 -0.084724486 -0.18733057 -0.22299246 -0.20846851 -0.16423999
0.2070127 0.03203835 0.17880338 0.09790082 0.07372827 0.24310878 0.1062838 0.24834459
0.24137911 0.23199071 0.33206457 0.17611708 0.251297 0.3130031 0.27306283 0.22079895
-0.44185525 0.024585372 -0.15000732 -0.18078665 0.13654144 -0.2997191 0.063005716 -0.061124846
-0.28058234 0.081488945 -0.32134774 -0.14887156 -0.017691169 -0.32517806 0.003922104 -0.25153324
-0.30179572 -0.0706358 -0.11681326 -0.0440897 0.021320876 -0.10508057 -0.017980412 -0.08998864
-0.16728118 -0.082573235 -0.18061465 -0.06865565 -0.13000263 -0.16938621 -0.08466252 -0.2636654
0.16664621 0.09026857 0.13190474 0.1762802 0.00826036 0.1677404 0.15202296 0.07239198
0.19439454 0.025270455 0.07985457 0.1713033 -0.082019575 0.22190754 0.15162727 0.17997368
0.16310571 0.109273285 0.1473326 0.050043095 0.13911678 0.024425328 0.17848739 0.15218616
0.105848536 0.2173478 0.07378093 0.142566 0.16641411 0.119717464 0.26855823 0.19599584
0.24537468 0.27361122 0.25596502 0.30697495 0.12626304 0.09620243 0.03442016 0.029215349
0.04465649 0.042638533 0.05473399 0.009954948 0.10336408 0.14787023 0.12125698 0.23896798
0.008255982 0.06394663 0.027763747 0.038856003 0.082432404 0.10780969 0.21671514 0.2540507
0.1863017 0.19483206 0.110941045 0.19623567 0.30485976 0.27375373 0.2797904 0.24550466
-0.106211364 -0.013031718 -0.12649773 -0.11991311 -0.052570008 -0.04764976 -0.05797345 -0.14095977
-0.094078965 -0.07065101 -0.02363946 -0.03619245 -0.08884908 -0.09626613 -0.07294304 -0.19139282
0.32557306 0.35019735 0.24042965 0.14627174 0.17420739 0.15214191 0.25860965 0.2362725
0.06825272 0.16489305 0.19345464 0.14139721 0.17298095 0.08279254 0.15267186 0.3674074
-0.30643898 -0.3120139 -0.085971646 -0.2637542 -0.08409575 -0.12317188 -0.2610673 -0.030694177
-0.1995437 -0.16333497 -0.06567736 -0.30763954 -0.11236713 -0.2716652 -0.109569296 -0.072102286
0.06090656 0.2414599 0.17871827 0.092618406 0.24405253 0.03374146 0.07123569 0.20827709
0.03328929 0.29497868 0.1106217 0.09592436 0.21708596 0.071328014 0.1567789 0.20723374
0.2594869 -0.02135832 0.13104884 0.17629945 -0.046016708 0.15460932 0.071568966 0.023372468
0.26381993 0.036185477 0.08366202 0.22353026 0.07889522 0.16653791 0.1624761 0.047818564
0.062400017 0.15421745 0.019755889 0.20281261 0.06963622 0.18363783 0.34388134 0.01185158
0.3593832 0.26380035 0.0909593 0.29188126 -0.0032688386 0.21280023 0.13376588 0.08317367

encoder.conv_2.1.weight f4 [32, 32, 1, 1]
00000000: 0046 683e b81f b8be bd58 4d3e 823e 7e3e
00000010: 34cb ee3e 052b d13e 00b4 92be dd6e 783e
00000020: c04c 28bc 8508 493e 7cdd b93e 4bc0 cc3d
00000030: 1dc4 4d3d ff44 c33d b3ce 113e 9012 8fbd
00000040: ba79 833e 5eb6 4f3e 484c 573d 0910 8fbe
00000050: 95be 883d c8a4 7a3e 621f 46be d80b 663e
00000060: a014 96bd fdba 0b3e 743f 253f 4366 a13d
00000070: e4d5 3cbe 8813 393e 32a7 b23e 048c 67be
00000080: 7099 55be 471e 18bc 3cf9 d2bd 8b7b c5be
00000090: d439 c6bd e4e9 853e 550e 37be 918e 213e
000000a0: 5b4b 3f3e 1e6c d43c 75c9 7e3d db3b a1be
000000b0: 4e7c 8fbe 2ff0 613e 266c 3f3d 3217 3a3d
000000c0: 79ec 64bc d9c4 183e 4612 b4be caac 003e
000000d0: c276 8abe 2c6d 9c3c 5afd 3b3d f79e 3fbf
000000e0: c391 59be a1ff 39be eb3a be3d bc84 ef3d
000000f0: 8368 d33e 602c a2ba 27ab c9be 8efa 7bbd
00000100: d208 e43b c798 013f 42ed 163f 0809 ee3e
00000110: 8da9 acbe 331c b5be f34e f53c 5c88 22be
00000120: 27b2 cb3d 3339 c03e 658a ad3d 58cb 373e
00000130: 1a87 b73e 0755 513c cca2 cc3d 0e3c c33c
00000140: 3708 9bbe 64b2 dbbe b466 be3e a339 e0bd
00000150: b7f9 d23e adb9 6f3e 5db7 dabb c730 dd3d
00000160: cabe 633e a2d8 833e a2b4 b63b 829c a5bb
00000170: 8c1a 54be c256 3bbe 00fa c5bd 8dee a4bd
00000180: f4a0 6abe 9186 36be a121 99be 737b b7be
00000190: 1e58 223e 298e 9abe 5943 c33e 9824 363e
000001a0: b915 acbe d62f 3dbe 17cf 4ebe 4c8d 2abd
000001b0: cd86 883e 7f50 debe 2a91 8abe 28aa 00bf
000001c0: 838f 4b3e bbd2 5d3e b98c a6bd 81d9 24be
000001d0: 0a33 bbbe 35c9 9fbd 9491 f33e 293f 263e
000001e0: 8233 9abe 8ff2 71be a756 a33e 54ef 98bb
000001f0: 37d6 693e b248 2c3e ff7a ad3d 8ac8 193e
00000200: 7763 803e f4f9 43be ad6d dbbd edad 92be
00000210: 2502 643d eff8 763e 8e83 123e 7cf1 38bd
00000220: 0ff9 e0bd 3f04 2b3c 0802 823d 7c53 883e
00000230: ae4c ae3c 43f6 01bf 9017 c3be 8545 61be
00000240: 3bd4 0d3e 9a7d 5e3e 4200 21be 198c 40bd
00000250: 5ae9 ca3e 3a88 373e 2b4e 18bd 0c2c db3e
00000260: 3175 55be bde9 983e ae8c de3d 08e5 b43d
00000270: e8c7 bc3e f018 fb3d de37 093e 2b99 78bb
00000280: f724 353d 1df3 6c3e 5e51 9ebd 30f3 b33d
00000290: 3590 843e 77e1 30bd c799 833e ad8a 79bd
000002a0: fd2d a8be 52f4 b5be 4693 45be 3033 eb3e
000002b0: ac46 723e 6b30 b9be a375 36be d5cf 4d3c
000002c0: 6019 9f3e d370 1e3e ecca 683e 5ed5 88be
000002d0: 2929 ce3e 60d9 913e 3257 a0bd c223 e83d
000002e0: 9fe6 21be 3bb7 9c3d 81b5 da3e 7003 483c
000002f0: da54 893e cf5a 08bf 6e3c b23d c628 f63e
00000300: ba65 9abc 270c be3d 00df b93e 1803 e83d
00000310: 11be 913e af1f 1d3d 40ba 27be a7fe 15be
00000320: 81d3 d13d 2555 71be 602b ff3e 65ba 8f3e
00000330: 7708 9e3d a512 89bd 6d44 ce3a 1312 1f3e
00000340: 8411 f23d 2d06 35be d5ed 563e cd30 7f3d
00000350: 8f30 ed3e 090d 0b3f 717a 93be 72f0 6f3e
00000360: b931 9d3e c672 d33e 7b38 8b3b 9b1a 2d3d
00000370: 8702 ca3c f2e0 b6be 6e1c e8bb 2aa1 603e
00000380: 3970 f6be 43ab 463d 3f81 28bd e8a4 49be
00000390: 069f 8dbc b22a 41be 4d57 0a3e 0762 50be
000003a0: f970 22be 13db 53bc 7f0d 01be 3279 a0be
000003b0: ab74 603e 0364 50bd a57f 203e fc78 603e
000003c0: c901 47be 0dd8 673d 03b9 b4be 7d0c a2bd
000003d0: cfc3 47be 1b79 8f3a 9893 a53e 147c d1bb
000003e0: 6703 b0be e3d0 13be 4b14 c6bd 001f e0be
000003f0: 9673 59be 4ca5 143e 3229 13bf 4fb7 75be
0.22682953 -0.359617 0.20053382 0.24828532 0.46639407 0.40853134 -0.28652954 0.24261041
-0.010272205 0.19632156 0.36301792 0.099976145 0.050235856 0.09534644 0.14239006 -0.069859624
0.25678807 0.20284411 0.05256298 -0.2794192 0.06676976 0.24476922 -0.19347909 0.22465456
-0.07328153 0.13645549 0.64549947 0.07880833 -0.18440968 0.18073857 0.34893185 -0.22612005
-0.20859313 -0.009284562 -0.10301444 -0.38570818 -0.096789986 0.26155007 -0.17876561 0.15777041
0.1868109 0.02593046 0.062203843 -0.3149098 -0.28024524 0.22064279 0.046733998 0.045432277
-0.013972395 0.14918841 -0.35170192 0.12565914 -0.2704373 0.019095026 0.04589591 -0.74851936
-0.2124701 -0.18163921 0.092885815 0.11695239 0.41290674 -0.0012372844 -0.3938839 -0.061518244
0.0069590593 0.50623745 0.58955777 0.46491265 -0.33723107 -0.35373077 0.029944872 -0.1587233
0.09946089 0.3754364 0.08473662 0.17948663 0.35845262 0.01277662 0.099919885 0.023832347
-0.30279705 -0.4290954 0.3718773 -0.10948493 0.41206142 0.23410673 -0.0066746906 0.10800319
0.22240749 0.25751215 0.0055757323 -0.0050540576 -0.20713252 -0.18294814 -0.09666824 -0.080533125
-0.22912961 -0.1782477 -0.2990847 -0.35836372 0.15853927 -0.30186585 0.3813732 0.17787397
-0.33610323 -0.18475279 -0.20196186 -0.041638657 0.26665345 -0.4342079 -0.27063876 -0.5025964
0.19878964 0.21662419 -0.081323095 -0.16098596 -0.36562377 -0.07802049 0.47572005 0.16235031
-0.30117422 -0.23627685 0.31902048 -0.004667202 0.22835623 0.16824606 0.08470725 0.15017906
0.25075886 -0.19138318 -0.10714278 -0.2864832 0.055666108 0.24118398 0.14307997 -0.045152172
-0.10985004 0.010438024 0.06348044 0.26626194 0.021276798 -0.5076639 -0.38103914 -0.21999176
0.13850491 0.217276 -0.15722755 -0.047008608 0.39631158 0.1792306 -0.03718392 0.42807043
-0.20845486 0.29865828 0.10866676 0.08832747 0.36871266 0.12260616 0.13400218 -0.0037933092
0.044224706 0.23139615 -0.07730363 0.08786619 0.2589127 -0.04318377 0.2570326 -0.060923267
-0.32847586 -0.35537964 -0.19294462 0.4593749 0.23659772 -0.36169752 -0.17818312 0.012561758
0.31074047 0.15472727 0.22733659 -0.26725286 0.40265778 0.28486156 -0.07829131 0.11334945
-0.15810631 0.07652136 0.42716601 0.012207851 0.2682255 -0.5326356 0.08702932 0.48077983
-0.018847335 0.092796616 0.36302948 0.11328715 0.28465322 0.038360294 -0.16379642 -0.14647923
0.10245419 -0.23567636 0.4983778 0.28071895 0.07716458 -0.06693009 0.0015736945 0.15534239
0.11819747 -0.17678137 0.20989163 0.0623024 0.4632611 0.54316765 -0.28804353 0.23431566
0.30701998 0.41298503 0.0042486764 0.0422617 0.024659408 -0.35718495 -0.007083467 0.21936479
-0.48132494 0.04850317 -0.041138884 -0.19691813 -0.017287742 -0.18863943 0.13509865 -0.20349894
-0.15863408 -0.012930649 -0.12602805 -0.31342465 0.21919505 -0.05087663 0.15673693 0.21921152
-0.19434275 0.056602526 -0.35297403 -0.07912538 -0.19508289 0.0010946126 0.32339168 -0.006392965
-0.34377596 -0.14435153 -0.09671839 -0.4377365 -0.21235499 0.14516181 -0.57484734 -0.23995708

encoder.conv_2.2.weight f4 [32]
00000000: ce42 0b40 00af d43f 460f f73f e7e1 e93f
00000010: 6fac c03f ee36 c03f 4cd9 ef3f 8227 d23f
00000020: e4ff b43f c3b9 833f 14ca bf3f 71e5 fb3f
00000030: e32a e73f 9f50 b03f 8063 0240 ae69 d73f
00000040: 47a3 dc3f 5282 bd3f 5a7b c33f 397f a33f
00000050: c929 c03f d461 c23f 5d1e df3f 6463 cd3f
00000060: 05db e53f fd5c cc3f 5a01 ed3f aec8 d93f
00000070: 9eec ec3f 4024 d63f 5cd4 df3f 5924 c33f
2.1759524 1.6615906 1.9301536 1.8272065 1.5052623 1.5016763 1.8738189 1.6418307
1.4140592 1.0291065 1.4983544 1.9679395 1.8059963 1.3774604 2.037323 1.6829126
1.7237328 1.4805396 1.5272019 1.27732 1.5012752 1.5186105 1.7431141 1.6045957
1.7957464 1.5965878 1.8516037 1.7014368 1.850971 1.6729813 1.7486682 1.5245467

encoder.conv_2.2.bias f4 [32]
00000000: a6c1 e5be 1d04 e7be 9843 3cbe fc83 0abf
00000010: c06b 6bbe 28e3 97be a93a a1be ee9a 02bf
00000020: eda9 cebe 744a 80be a44f 01bf 927a c5be
00000030: dfe1 d3be 766e aebd 4541 05bf dd83 c9bd
00000040: 90b4 debe b27e 27be dec1 47be 1eb2 9cbe
00000050: 4f57 debe 761d b2be 3c88 88be b807 fcbe
00000060: 265a 32bf 530e cebe 915a d9be be8f f1be
00000070: d62c 3bbf 4b0c c4be 1670 09bf 1bdb a9be
-0.44874305 -0.45120326 -0.1838516 -0.5410764 -0.22990322 -0.29665494 -0.31490067 -0.51017654
-0.40364018 -0.25056803 -0.50512147 -0.38570076 -0.41383263 -0.085171625 -0.5205272 -0.09839604
-0.43497133 -0.16356924 -0.19507548 -0.30604643 -0.43425986 -0.34788102 -0.2666644 -0.4922464
-0.69668806 -0.40245304 -0.4245191 -0.4717998 -0.7311529 -0.3829063 -0.53686655 -0.33174977

encoder.conv_2.2.running_mean f4 [32]
00000000: 92b2 523e 5c4d 623e 6822 5cbd 818d 03be
00000010: 5d70 f0bd 3aca b7be 090d 873e 4474 ae3e
00000020: a0b3 a83e 1aeb a3be 6d4f a63e 9381 15be
00000030: 7df2 17be b9f6 7bbe d0bb b43d c443 c63e
00000040: c605 73bb e471 663e 62b3 0abf 2176 04bb
00000050: a8e7 47be 5dac debd ef30 da3e e18d 51bc
00000060: 2ff6 f03d 9786 cc3d 7dae e13e 865a 4cbe
00000070: 2cf0 083e 544c 833e ddd9 27be a421 98bd
0.20575932 0.22099823 -0.05374375 -0.12846948 -0.117401816 -0.35896474 0.26377133 0.3407308
0.32949543 -0.32015306 0.32482472 -0.1460021 -0.14838596 -0.24605836 0.08824885 0.38723576
-0.0037082299 0.22504383 -0.54179966 -0.0020212012 -0.19521964 -0.108727194 0.42615458 -0.012790174
0.11765706 0.099866085 0.44078436 -0.19956407 0.13372868 0.2564417 -0.16391702 -0.074282914

encoder.conv_2.2.running_var f4 [32]
00000000: f9e8 853f 5e32 bb3f 09e4 c63f ab0c 2340
00000010: 14f1 ca3f 78ed c03f 44d9 de3f 0cbc 933f
00000020: 11bd 8c3f 273d bc3f 3449 a13f cd7a bd3f
00000030: 7cb0 c03f 7422 5d40 8945 923f dea9 e73f
00000040: 4fbe 833f 19eb d93f 0fcb 1e40 09a3 a93f
00000050: 2db7 e33f c186 af3f 2039 d13f 04d7 a73f
00000060: 429f a83f f3f5 a23f 8b3b 763f c364 c33f
00000070: 3f13 943f 7e97 7a3f dfa1 8c3f 3470 0140
1.0461723 1.4624746 1.5538341 2.5476482 1.5854821 1.507247 1.7410054 1.1541762
1.0995198 1.4706162 1.2600465 1.4803101 1.5053859 3.4552279 1.142747 1.8098714
1.0292453 1.7024871 2.4811437 1.3252879 1.7790276 1.3712999 1.6345558 1.3112493
1.3173602 1.2731308 0.96184605 1.5265125 1.1568373 0.9788741 1.0986899 2.0224733

clf.linear.weight f4 [4, 256]
00000000: 36bb f53c 312f a63c 389f 743c 0ce4 683c
00000010: 03d5 2b3c 530e 923c 2e7e a53c 5f45 553c
00000020: 4b72 84bc cc78 b1bc f342 a5bc 363c b1bc
00000030: 0bfb 9dbc 5b3f 95bc 75aa 8dbc 5b28 8ebc
00000040: 9740 d33c b6c3 b73c a576 a53c 7203 bf3c
00000050: 8111 b93c 622e e63c 827f 003d d87c 033d
00000060: 1e89 82bc ff53 57bc 2784 20bc 82c1 4ebc
00000070: 7638 7fbc 1c84 78bc e96b 83bc 1794 96bc
00000080: b8d9 3e3c b9f9 273c 733a 5d3c f4c5 2a3c
00000090: 4fd1 cf3b e409 dd3b 0c3d 353c 9167 6d3c
000000a0: cb5f 7d3b 8e9c 263c aac5 643b 14c4 9e3b
000000b0: c402 963b e67f 2cbb 3a08 913b 7aaa 423c
000000c0: cfc2 003c 733f 733c f4fa 583c d840 563c
000000d0: 3a6d 8d3c 94ce 7f3c 4b5c b73c 6d6a d93c
000000e0: 6d81 c7bb 0866 04bc 98c3 35bc 9cae 18bc
000000f0: 5cad 3bbc 9ed9 cabb ca10 18bc 5ec9 93bc
00000100: 7e50 29bc 86c8 0fbc 5075 08bc fd97 10bc
00000110: 9e66 15bc 9d13 b8bb 2baf 60bc 109a 1abc
00000120: b0dc 00bc 01cf 46bc 7759 71bc d3c5 9ebc
00000130: f5a9 99bc e0d7 a7bc 9174 9dbc da0f acbc
00000140: e195 83bc d0d2 8abc 25ea 9dbc c97b c4bc
00000150: ec97 a1bc 1fb9 89bc 4407 99bc 2567 11bc
00000160: e5a3 703c f9e2 fc3b cb99 3e3c c831 a13b
00000170: c33c 523c e2d1 3a3c c4b1 7a3c 7a6b b33c
00000180: b580 7bbc b67c 6dbc c2ab 28bc f031 10bc
00000190: e204 18bc e337 75bc 098f 78bc 49b7 54bc
000001a0: 42f6 b73c 9a28 c43c 2dad 9e3c b183 973c
000001b0: 32b5 bc3c b64c c13c f459 003d fac6 f43c
000001c0: b9bf d8ba 490e f1ba c61d 86bb b0a6 04bc
000001d0: 693c 9c38 6d55 8ebb c448 dcbb aa02 2bba
000001e0: 5b17 2a3c 6a40 843c de82 973c 3bbc ac3c
000001f0: 5162 a33c 7ac7 af3c bf96 a63c c96b de3c
00000200: 72f4 83bc a9cc a0bc 008e a5bc 6952 cfbc
00000210: c6d8 9abc 0d64 b0bc 9900 9bbc 9232 96bc
00000220: 6e7d 5d3c b261 9c3c f057 903c 9f36 b73c
00000230: d720 a13c caa9 b73c 6abe 8e3c a4d9 c33c
00000240: e58a a93c 7bb9 8a3c 193a 863c df4a 723c
00000250: dbe3 973c ebcd 893c 1d5e b43c 6858 e63c
00000260: 5cb3 fe3c 679d 753c 8d7e a43c 134b 403c
00000270: a10d 943c 31bc 963c 6d81 ad3c 7217 8c3c
00000280: d20d b2bc 19c7 96bc 7c85 81bc c933 9abc
00000290: 179f 61bc 11f1 84bc 5f94 99bc 87e1 82bc
000002a0: 9ecd b63c 6229 a93c 3e03 883c f342 6b3c
000002b0: 95b7 633c 1ade 513c 4b8c 5e3c 467d 4e3c
000002c0: 0466 173c 0519 183c 27a9 2c3c b1e1 863c
000002d0: 44c6 453c 1ef7 4c3c a910 853c fe82 b93c
000002e0: 9a8e 73bc 2ca5 3abc d407 03bc 9173 52bc
000002f0: f74b 2ebc cc95 70bc 56c1 49bc 9ec1 8fbc
00000300: 2107 9cbb 7d1a 0ebc fa9c 15bc 0fd6 c5bb
00000310: e645 b7bb 0cd2 a3bb 0dc2 a1bb 907e e3bb
00000320: 9a66 9b3b dec6 233c f7b8 793b 8361 083c
00000330: c307 173c 57a4 373c d9b7 233c 3a37 5a3c
00000340: 2de6 7b3c 1253 803c 2abf 8b3c a3bc b83c
00000350: c329 9a3c 5eec 413c d237 433c 8da1 623c
00000360: 67ad f3bb 092a 07bc f465 c6bb f2ad d6bb
00000370: 368e babb 1714 05bc e61d 1bbc 54bb 41bc
00000380: 9605 23bc 736c 2abc 9394 1cbc 8662 09bc
00000390: 611b edbb 0b12 1dbc 87f5 11bc ab15 33bc
000003a0: 5d2f 1fbc a704 21bc 05f5 27bb e470 d4bb
000003b0: 442a 1abc cee0 e3bb 5370 b4bb 63bc 88bb
000003c0: 7a96 3fbc ed66 86bc c384 9abc 7e66 9dbc
000003d0: e735 8abc 091f 5bbc fd00 96bc 042a a0bc
000003e0: 23ec 62bc 55ed 52bc dac1 03bc 05a4 54bc
000003f0: 1c6e 0cbc db09 44bc a8cf 6bbc f945 81bc
0.029996496 0.020286174 0.014930539 0.014214527 0.010487798 0.017829096 0.020201769 0.013017028
-0.01616778 -0.021664046 -0.020173525 -0.021635156 -0.019284746 -0.018218687 -0.017293194 -0.017353227
0.025787635 0.02243219 0.020198176 0.023317073 0.022591354 0.028098289 0.0313716 0.032101482
-0.015934523 -0.013142585 -0.009797133 -0.012619378 -0.015577426 -0.015168216 -0.016042667 -0.018381162
0.011648588 0.01025241 0.013502705 0.010423172 0.00634209 0.006745564 0.011061918 0.014490024
0.0038661833 0.0101691615 0.0034907856 0.0048451517 0.0045779664 -0.002632135 0.0044260295 0.011881465
0.007858946 0.01484667 0.013243426 0.013076983 0.017263997 0.015613217 0.022382876 0.026540006
-0.006088427 -0.008080967 -0.011093996 -0.009318974 -0.011454906 -0.006190493 -0.009281347 -0.018040355
-0.010334132 -0.008775836 -0.008328751 -0.008825299 -0.009118704 -0.0056175725 -0.013713638 -0.009436145
-0.007865116 -0.0121343145 -0.014730803 -0.01938144 -0.0187578 -0.02048868 -0.019220622 -0.021003652
-0.016062679 -0.016946226 -0.019276688 -0.023984807 -0.019725762 -0.016811905 -0.018680222 -0.008874689
0.014687513 0.007717487 0.011633347 0.0049192645 0.01283187 0.011402579 0.015301172 0.021901835
-0.01535051 -0.014495065 -0.0102948565 -0.0088009685 -0.009278508 -0.014966938 -0.015170821 -0.012983152
0.022456292 0.023945142 0.019369686 0.018495413 0.02303562 0.023596149 0.031335786 0.029880036
-0.001653663 -0.0018391098 -0.0040929047 -0.008096382 7.449912e-05 -0.0043436796 -0.0067225415 -0.00065235293
0.010381545 0.016143996 0.01849502 0.021085849 0.019944342 0.021457423 0.020335553 0.027151005
-0.016107772 -0.01962884 -0.020209312 -0.02530785 -0.018902194 -0.021532083 -0.018921183 -0.01833466
0.013518674 0.019089554 0.017620057 0.022364913 0.01966898 0.022419829 0.01742478 0.02390749
0.020696113 0.016934147 0.016385125 0.0147883585 0.018541267 0.016821822 0.022017533 0.028118327
0.031091385 0.014991141 0.020079875 0.011736649 0.018072905 0.018400284 0.02117988 0.017101023
-0.021735106 -0.018405484 -0.01581072 -0.018823521 -0.01377084 -0.01622823 -0.018747507 -0.01597668
0.022314843 0.020649616 0.016603108 0.014359224 0.01389875 0.012809301 0.013583253 0.01260311
0.009240631 0.009283309 0.010538376 0.01646504 0.012071196 0.012510089 0.016243296 0.02264547
-0.014865542 -0.011391919 -0.007997472 -0.012844936 -0.010638229 -0.014684152 -0.012314161 -0.017548379
-0.004761592 -0.0086733075 -0.009131664 -0.0060374807 -0.0055930493 -0.004999405 -0.0049364627 -0.0069425777
0.0047424557 0.009996144 0.0038104632 0.00832403 0.009218159 0.011208615 0.009992563 0.013318831
0.015374702 0.015664611 0.017058928 0.022550886 0.018818742 0.0118361395 0.011915164 0.013832462
-0.0074364427 -0.008249768 -0.006054634 -0.0065514976 -0.0056932224 -0.008122466 -0.009467578 -0.011824448
-0.009950062 -0.010401833 -0.009556907 -0.008385306 -0.00723593 -0.009586821 -0.008908636 -0.010930459
-0.009715882 -0.009827769 -0.002562822 -0.006483184 -0.009409491 -0.006954289 -0.005506554 -0.004172848
-0.011693591 -0.0164065 -0.018862134 -0.019213911 -0.016871406 -0.013374099 -0.018311018 -0.019551285
-0.013850245 -0.012873967 -0.008041823 -0.012978558 -0.008571174 -0.01196524 -0.014392771 -0.015780436

clf.linear.bias f4 [4]
00000000: e1c7 023d 8e24 dfbc e2db 3cbd 8da5 433d
0.0319289 -0.02723911 -0.046108134 0.047765303

best_model_score f8 []
00000000: 7d9b 56af c030 e13f
0.5372012543274277

exp_avg f4 [8, 1, 1, 64]
00000000: 70fc bdb7 08dd c339 339f 953a dd40 e73a
00000010: d5ce d83a 3556 053a 68db 53ba 0408 b3ba
00000020: 46df c7ba 73e5 e2ba f57c c8ba ed41 36b9
00000030: 8b4b d33a 8916 233b e54a f53a 936c 053a
00000040: afd1 45ba 21d5 8fba f22e 20ba dc2d 03ba
00000050: 930b 94ba e69f 8fba 8609 8b3a bea6 6d3b
00000060: 3936 5a3b 0fa8 90b9 0161 82bb 8a71 91bb
00000070: 5b89 ddba bdf7 883a 7ff2 c73a 4c90 063a
00000080: 91fe 6c39 4728 ba3a 3fe2 2d3b a82c 153b
00000090: 6f2e 6239 df00 efba a296 07bb 540d 92ba
000000a0: 4982 69ba a9fe 0dbb b853 3ebb 3386 85ba
000000b0: 6d4a 213b b0fe 903b 693a 643b d915 9a3a
000000c0: 859f 25ba 958d b2ba dafe beba b4d9 ddba
000000d0: 103b 1abb 20c9 2fbb 93dd a6ba add1 743a
000000e0: a564 aa3a 5414 0439 0c59 9839 9a47 1b3b
000000f0: 15ff 5a3b e6be ae3a 4a82 c0ba f507 20bb
00000100: 6dc4 6cb9 38f7 e339 cef8 cd3a ae74 093b
00000110: 6765 bd3a c215 2839 fe63 76ba 0e55 c3ba
00000120: ada6 ceba 76d0 b8ba 4d60 8eba 59a5 e0b9
00000130: f4e3 473a 345a 083b 12f5 1c3b fd06 ab3a
00000140: 8493 acb9 4896 aeba e7df b9ba b7d8 a0ba
00000150: f068 a3ba 3ff3 92ba c925 cab9 f512 533a
00000160: 5d42 d73a dc7f c83a 77b3 2c3a 51ff 8cb9
00000170: a88c 32ba face 12ba 93a7 aab9 fc6e d7b9
00000180: 669f 51ba e9bc 68ba 321c bab9 2aed a739
00000190: 7a9e bc39 2399 86b9 61ab 28ba a344 52b9
000001a0: 4000 273a e459 8a3a 4395 6c3a c403 293a
000001b0: 2d4e 123a c263 a939 a710 acb9 b050 99ba
000001c0: 0119 d8ba 99e3 b6ba 3093 09ba a396 cb39
000001d0: eb33 443a dce5 fb39 01b9 2b38 95f2 b5b8
000001e0: 33d8 1b39 e196 e039 f60b 063a 39a6 fd39
000001f0: f634 053a 0698 ff39 3a12 ae38 9010 38ba
00000200: 7814 ac3a ba5c 2d3b 9728 0a3b f51e fb39
00000210: 9209 6bb9 9e07 14b9 248c 13ba 2ba5 85ba
00000220: c623 15ba c8ea d5b8 e5db 3aba fd8a baba
00000230: 9fc8 52ba 4960 403a 4fc8 fb3a 6146 3e3b
00000240: 3057 883b 9a2a 8e3b e075 193b ea4d 4db9
00000250: ba81 96ba 552e 9cba ba22 2ebb a034 90bb
00000260: 57c5 50bb ec0d 303a 1ddc 4d3b ff59 1c3b
00000270: 6f0b 973a 9a16 e43a 7c1a 1d3b daa7 8d3a
00000280: ba99 54ba 7e96 98ba d4c9 29b9 6b31 8a39
00000290: b17d e0b6 1128 de39 39b4 c63a 7ab0 eb3a
000002a0: cbc8 5139 4128 16bb ec97 5fbb 2fc8 0dbb
000002b0: 985a f8b8 f9c7 3f3a 7949 4336 6ed3 25b7
000002c0: b216 e43a 735b 5d3b 7d1a 423b af4a 893a
000002d0: 784e 9cb9 62df a0b9 8234 31ba 68da 2abb
000002e0: 80c6 9ebb ed3a 9cbb eafe 19bb b5e3 5fb9
000002f0: 8184 cc39 e4e6 a63a f059 643b c374 973b
00000300: 4f36 7b39 dc74 3c3a 8b7c 223a 862c 19b9
00000310: d563 9aba f59d feba cdea 06bb c01f 8cba
00000320: d4a9 043a c6ae db3a 50e0 083b cd32 f63a
00000330: 5a34 6a3a 2651 41ba 7c93 01bb 42bf fbba
00000340: 611d 9cba 1572 05ba d679 e739 4d50 e53a
00000350: 0262 123b 0057 9a3a bc29 7bb9 0a21 4aba
00000360: cbc4 46ba c85b 6bba 163f 7cba ba27 4cba
00000370: 2153 29ba 356a ecb9 77e3 a839 65d3 aa3a
00000380: 559b c73a 55c5 933a abf1 853a 7a01 6e3a
00000390: 77f3 9fb9 7857 0dbb 4048 44bb 5840 0dbb
000003a0: 773c 2fba 627c 8139 2cad f539 6b40 103a
000003b0: ac2b 863a 2c7a f03a c0a2 003b 15f4 883a
000003c0: 4876 d0b8 ff55 2cba 55b9 30ba 1ffe 46ba
000003d0: 0201 8cba d75a b4ba beb9 c2ba 9f57 7aba
000003e0: 22f8 a039 5f66 d83a 6d53 063b e0e1 bb3a
000003f0: 3dcf 243a 47f4 c639 54ff b439 33c4 8cb9
-2.2648106e-05 0.0003735798 0.0011415243 0.0017643232 0.0016541133 0.0005086393 -0.00080817053 -0.0013659005
-0.0015249036 -0.0017310813 -0.0015296029 -0.00017381432 0.0016120536 0.0024885258 0.0018714337 0.0005089726
-0.0007546199 -0.0010973552 -0.0006110511 -0.0005004087 -0.0011294953 -0.0010957688 0.0010607697 0.0036262716
0.003329648 -0.00027591034 -0.003978849 -0.0044385837 -0.0016901897 0.0010449808 0.0015254765 0.0005133196
0.00022601547 0.0014202677 0.0026532558 0.0022762213 0.00021570337 -0.0018234513 -0.002068915 -0.0011142888
-0.00089076586 -0.0021666682 -0.00290416 -0.0010187089 0.0024611012 0.0044248924 0.0034824854 0.0011755779
-0.0006318021 -0.0013622517 -0.0014571801 -0.0016925843 -0.002353374 -0.002682276 -0.0012730829 0.00093391055
0.0012999965 0.00012596074 0.00029058044 0.00236938 0.00334162 0.0013332039 -0.0014687267 -0.0024418805
-0.00022579888 0.00043481006 0.0015714408 0.0020974088 0.0014449776 0.00016029834 -0.0009399055 -0.0014902668
-0.0015766226 -0.0014100212 -0.001086244 -0.00042847803 0.0007625215 0.0020805718 0.0023949784 0.0013048347
-0.00032916304 -0.0013319934 -0.0014181108 -0.0012271617 -0.0012467187 -0.0011211409 -0.00038556595 0.0008051836
0.0016422976 0.0015296894 0.00065880216 -0.00026893106 -0.00068111205 -0.00056003 -0.0003254978 -0.00041090685
-0.00079964695 -0.00088782475 -0.00035497692 0.00032029423 0.00035976229 -0.00025672567 -0.0006434229 -0.0002005273
0.00063705817 0.0010555354 0.0009024927 0.00064473995 0.0005581107 0.00032308517 -0.00032818803 -0.001169702
-0.0016486944 -0.0013953327 -0.0005248068 0.0003883141 0.0007484543 0.0004804571 4.0941875e-05 -8.675937e-05
0.00014862492 0.00042837023 0.00051134767 0.00048379766 0.0005081439 0.00048750656 8.3003615e-05 -0.0007021511
0.0013128659 0.0026452974 0.0021081322 0.00047897515 -0.00022414912 -0.00014117218 -0.00056284876 -0.0010196319
-0.00056892296 -0.00010200363 -0.0007128104 -0.0014232096 -0.0008040759 0.00073385664 0.0019209477 0.0029033648
0.004160784 0.0043385746 0.0023416206 -0.00019579349 -0.0011482753 -0.0011915663 -0.0026570992 -0.0044008046
-0.0031855905 0.00067159417 0.0031411715 0.0023857353 0.0011523793 0.0017401755 0.0023972085 0.001080747
-0.0008110065 -0.001164153 -0.00016192283 0.0002635823 -6.6903526e-06 0.0004237299 0.0015159912 0.0017981671
0.00020006594 -0.0022912177 -0.0034117652 -0.0021634211 -0.00011842436 0.000731587 2.910003e-06 -9.883994e-06
0.0017401783 0.0033776432 0.002961784 0.0010474528 -0.00029813102 -0.0003068401 -0.00067598384 -0.0026070122
-0.0048454404 -0.0047677667 -0.0023497888 -0.00021351765 0.00039008635 0.0012733606 0.0034843646 0.0046220734
0.00023957457 0.0007189044 0.0006198368 -0.00014607803 -0.001177902 -0.0019425737 -0.002058673 -0.0010690615
0.0005060707 0.001676046 0.0020885654 0.001878345 0.00089341926 -0.0007374458 -0.0019771745 -0.001920678
-0.0011910611 -0.0005090547 0.00044150528 0.0017495245 0.002233625 0.0011775196 -0.00023952773 -0.00077106117
-0.0007582425 -0.0008978215 -0.00096224376 -0.0007787902 -0.00064592256 -0.00045092558 0.00032212932 0.0013032971
0.0015228788 0.001127402 0.0010219117 0.00090791995 -0.0003050824 -0.0021567028 -0.002995029 -0.0021553244
-0.000668473 0.0002469747 0.00046859065 0.0005502763 0.0010236404 0.0018346957 0.0019628257 0.0010448719
-9.9402445e-05 -0.0006574094 -0.0006741484 -0.00075909676 -0.0010681453 -0.0013759983 -0.0014856381 -0.00095498
0.00030702451 0.0016510001 0.0020496503 0.0014334284 0.00062869844 0.00037947504 0.0003452251 -0.0002684906
